5-pytorch_modes/onnx_model.onnx (onnx, 651 bytes, 4 tensors)

fc1.weight f4 [5, 10]
00000000: dc66 5fbe 5d32 c5bc 3087 953e df00 58be
00000010: 23b1 3e3e d7e9 783e 0cb8 33be 07fc d73c
00000020: b155 6f3e 0109 a1be 1cc7 38be f04f 78be
00000030: 8bc2 9d3e d0de 4e3e da48 81be 258a 6abe
00000040: 25b3 333e a35d f73c 19e4 0abe bf70 1cbd
00000050: bef3 9b3e ffbf 82bc b59e 80be 9c6e af3d
00000060: 2f05 2d3e 0329 3bbd d27e 40be 54ea e23d
00000070: 52c5 743d 3e74 c6bd a258 e0bd d9c3 9b3d
00000080: 6d6b 643e 9d10 d0bc 3428 f2bd df4d 9c3e
00000090: 3a07 b0bd af11 ddbd febc 853d 8a6d dfbd
000000a0: 8b1b 50be 77b9 d43d f801 a03e 853e 843e
000000b0: 5698 6f3e 7d2a 54bd 1736 9abe 2596 eabd
000000c0: fcc6 5cbe 089e 9d3e
-0.21816581 -0.024071867 0.29204702 -0.21094082 0.1862226 0.24307953 -0.17550677 0.026365293
0.23372532 -0.31452182 -0.18044704 -0.24249244 0.30812487 0.20202184 -0.25250894 -0.2290426
0.17548807 0.030196017 -0.13563575 -0.03819346 0.30459398 -0.015960691 -0.25121084 0.08566019
0.16896509 -0.04569341 -0.18798378 0.11079851 0.05975849 -0.0969014 -0.10954405 0.07605714
0.22306605 -0.025398547 -0.118240744 0.3052816 -0.08595128 -0.107943885 0.06530188 -0.10909565
-0.20323007 0.10386937 0.31251502 0.2582895 0.23397955 -0.051798332 -0.30119392 -0.11454419
-0.21560282 0.3078463

fc1.bias f4 [5]
00000000: 17ff adbd b18c ac3d afa5 21bd 2f25 6cbe
00000010: 635d 46be
-0.0849592 0.08425272 -0.03946465 -0.2306106 -0.19371562

fc2.weight f4 [2, 5]
00000000: 29dc e1bd ced1 49bd d9fc ab3e f186 15be
00000010: 2dc2 b8bd d565 1cbe 56be 6f3e 365d 953c
00000020: a66c d53e dd82 98bd
-0.1102832 -0.04927235 0.33591345 -0.14602257 -0.09021411 -0.15273221 0.23412451 0.018232923
0.41684455 -0.07446835

fc2.bias f4 [2]
00000000: 1fa2 893e d86b 963e
0.268815 0.29379153
