5-pytorch_modes/scripted_model.pt (torch, 6423 bytes, 4 tensors)

weight f4 [5, 10]
0	0x3e562983	0.20914273
1	0xbe607bb5	-0.2192219
2	0x3d8fd740	0.070234776
3	0xbe007adc	-0.12546867
4	0x3e78eee1	0.24309875
5	0x3d917813	0.071029805
6	0xbb87850c	-0.0041357335
7	0x3e724b93	0.23661642
8	0x3e1ebe82	0.1550236
9	0x3d9280ae	0.0715345
10	0xbe96f999	-0.29487303
11	0x3e5fd696	0.21859202
12	0xbe8f267a	-0.27959043
13	0x3bb7ce8f	0.0056093405
14	0x3e89c932	0.26911312
15	0xbe81dd44	-0.25364125
16	0xbe00f7ae	-0.12594482
17	0x3d899081	0.06717015
18	0xbe137de2	-0.14403489
19	0xbe51bc03	-0.20481877
20	0xbd182ab8	-0.037150115
21	0xbe97873c	-0.29595363
22	0xbe4a8346	-0.1977664
23	0x3e866d12	0.2625509
24	0x3d9f4f00	0.0777874
25	0xbe842570	-0.25809813
26	0x3d76e96a	0.060281195
27	0xbe4a45fc	-0.1975326
28	0xbc14aff4	-0.009075154
29	0xbe68aada	-0.22721425
30	0x3e52b2b3	0.20575981
31	0xbe9e23f2	-0.308868
32	0x3e02a439	0.12757958
33	0x3d0e5d82	0.034757145
34	0x3db2f941	0.08738948
35	0xbd4e5527	-0.050374176
36	0xbea48745	-0.32134452
37	0x3ea30ff5	0.31848112
38	0xbe9fe6c4	-0.31230748
39	0x3e67dc60	0.2264266
40	0x3e2c716e	0.16840145
41	0xbdc66975	-0.09688083
42	0x3dd39797	0.10331648
43	0xbe951512	-0.29117638
44	0xbded42cb	-0.115850054
45	0x3dfc98dc	0.12333843
46	0xbe9a457e	-0.30131143
47	0x3e3214d3	0.17390756
48	0x3e53a020	0.20666552
49	0x3e89da52	0.26924378

bias f4 [5]
0	0x3d214314	0.03937061
1	0xbe628801	-0.22122194
2	0xbe368e96	-0.1782783
3	0xbd6e367b	-0.058157425
4	0xbe5d96f3	-0.21639614

weight f4 [2, 5]
0	0x3e802d90	0.2503476
1	0x3eb399c2	0.35078245
2	0xbea052ca	-0.31313163
3	0xbe929b63	-0.28634176
4	0xbeafd8fd	-0.34345236
5	0x3c0fd542	0.008778872
6	0x3dead152	0.11465706
7	0xbde6eb35	-0.11275331
8	0x3db6b19e	0.089205965
9	0xbebbff90	-0.36718416

bias f4 [2]
0	0x3e737c3d	0.23777862
1	0x3e29d23f	0.16584109
