5-pytorch_modes/traced_model.pt (torch, 5039 bytes, 4 tensors)

weight f4 [5, 10]
0	0xbd7c311a	-0.061570264
1	0x3dfe9df9	0.12432475
2	0xbdf1c859	-0.118057914
3	0x3e70fd99	0.2353424
4	0x3dfe4fb5	0.12417547
5	0xbdd17376	-0.102271006
6	0xbdfbf7b9	-0.12303109
7	0x3de11071	0.10989464
8	0xbd718dc9	-0.058973107
9	0x3e3cf04b	0.1845104
10	0x3da48244	0.08032659
11	0x3ca1a4c6	0.01973189
12	0xbe9493ba	-0.29018956
13	0x3ea03327	0.31289026
14	0xbe869d8c	-0.26292074
15	0x3e9e739c	0.30947578
16	0xbcbc280d	-0.022968316
17	0x3e804b94	0.25057662
18	0xbe49cefd	-0.19707866
19	0xbdbd275d	-0.092360236
20	0xbe9d7f05	-0.3076097
21	0xbdbd7d01	-0.09252358
22	0xbe8bedd2	-0.2732988
23	0x3d7a80a9	0.061157856
24	0xbe2fe07b	-0.17175476
25	0x3e012581	0.12611963
26	0xbe2f3a73	-0.1711214
27	0xbe6ff026	-0.23431453
28	0xbe87870a	-0.26470214
29	0x3e2c48f5	0.16824706
30	0xbe0bb77f	-0.13644217
31	0x3e1d2d0a	0.15349212
32	0x3d7079b8	0.05870983
33	0xbe03c15b	-0.12866728
34	0x3c4f03d2	0.012635188
35	0xbe5ed734	-0.21761781
36	0x3dcfa287	0.101384215
37	0xbe9b4ccf	-0.30332038
38	0xbc9349a8	-0.017979458
39	0x3e42bec5	0.19018085
40	0x3e8380f2	0.25684315
41	0x3e425391	0.1897719
42	0xbe90384b	-0.28167948
43	0x3cf3fe05	0.029784212
44	0x3e513071	0.20428635
45	0xbe2d4529	-0.16920914
46	0xbdbd554c	-0.09244785
47	0xbe812ac9	-0.25227955
48	0x3e45171e	0.192471
49	0x3d8bc027	0.068237595

bias f4 [5]
0	0xbd683b2d	-0.05669706
1	0xbdf2d4d8	-0.11857003
2	0xbe98143a	-0.29702932
3	0x3e7d0f0b	0.2471277
4	0xbe940be7	-0.2891533

weight f4 [2, 5]
0	0x3ee35f02	0.44408423
1	0x3e76f4cf	0.24116825
2	0x3ecd4001	0.40087894
3	0xbe67f71a	-0.22652856
4	0xbdca33db	-0.09873172
5	0xbe4b9e48	-0.19884598
6	0x3ed3cec5	0.4136869
7	0xbe085f2b	-0.13317554
8	0xbebe106d	-0.37121907
9	0xbe92c319	-0.28664473

bias f4 [2]
0	0x3ebc79ba	0.3681162
1	0xbed7e1c3	-0.4216443
